Model: "sequential"
_________________________________________________________________
Layer (type)                 Output Shape              Param #   
=================================================================
embedding (Embedding)        (None, 169, 100)          892500    
_________________________________________________________________
conv1d (Conv1D)              (None, 165, 128)          64128     
_________________________________________________________________
global_max_pooling1d (Global (None, 128)               0         
_________________________________________________________________
dropout (Dropout)            (None, 128)               0         
_________________________________________________________________
dense (Dense)                (None, 32)                4128      
_________________________________________________________________
dropout_1 (Dropout)          (None, 32)                0         
_________________________________________________________________
dense_1 (Dense)              (None, 8)                 264       
=================================================================
Total params: 961,020
Trainable params: 961,020
Non-trainable params: 0
_________________________________________________________________
